activity-recognition-demo/model/cumulocity_classification_model_3.onnx (onnx, 22148 bytes, 5 tensors)

const_fold_opt__55 f4 [1, 32, 1]
000000 89 c5 ca bd 75 fb a6 3d 00 89 68 3d f4 8f bf 3d
       -0.09900958 0.0815343 0.05677128 0.09353629
000010 89 38 a2 bc c2 50 9c bd 11 e7 89 3d 64 0b b0 bd
       -0.019802349 -0.07632591 0.067335255 -0.085959226
000020 b2 2d 6d bd 8f bb 84 3c e0 77 dd 3d 70 8c e7 3d
       -0.057904907 0.016202716 0.1081388 0.11306083
000030 72 e4 5f bd 6d cf 0c 3e 79 7a 93 bd 95 a7 ae 3c
       -0.05466122 0.13751002 -0.07201094 0.021320144
000040 22 5b d5 bd 07 a6 40 3d 21 1b fe 3d 15 62 cf 3d
       -0.10417773 0.047033336 0.12407518 0.101261295
000050 8a 7a b0 3b bb 0a 11 be d4 55 58 bd 25 c6 56 3d
       0.0053857015 -0.1416425 -0.052816227 0.05243506
000060 10 81 0b be eb f9 f5 3c 91 97 fc bc be a2 9f 3d
       -0.13623452 0.030026397 -0.030833991 0.077947125
000070 31 50 73 bd fc 3e 1f be 13 e9 f6 3d bf 93 f7 3d
       -0.05940265 -0.1555137 0.12056174 0.12088727

StatefulPartitionedCall/sequential_1/dense_3/MatMul/ReadVariableOp:0 f4 [128, 1]
000000 96 11 96 bd 52 df 9a 3e d2 6e 50 3e 00 d1 3e be
       -0.07327573 0.30248505 0.20354775 -0.18634415
000010 8d e0 cf 3e 61 8a 50 be b6 e2 57 be 83 d3 aa 3e
       0.40601006 -0.20365287 -0.21082577 0.33364496
000020 d4 76 b9 3e 17 81 26 3e c7 24 0c be 4f f8 93 be
       0.3622347 0.16260181 -0.13685904 -0.28900382
000030 0c 23 a6 be df 1c 3f 3e 1c ca 28 3e 6d c9 29 be
       -0.32448614 0.18663357 0.16483349 -0.16580744
000040 57 50 41 be 7e 77 8b be 75 68 19 be 75 df 97 3e
       -0.18878303 -0.27239603 -0.14981253 0.29662672
000050 c4 09 92 3e 71 99 1f be 29 12 89 be ba 1e b3 3e
       0.28523076 -0.15585877 -0.26771668 0.3498438
000060 f0 cf 58 bd 49 5b 14 bd ea 05 9b 3e 93 6e 57 3e
       -0.05293268 -0.03621987 0.3027795 0.21038274
000070 03 e3 d1 bc 81 5a 88 3e 7c f2 9d 3d db 1b 7a 3e
       -0.025620943 0.2663155 0.07712266 0.24424689
000080 69 bd a4 3e d9 6e 17 be ce 50 87 3e 34 4e aa 3e
       0.32175758 -0.14788379 0.26428837 0.3326279
000090 9b 40 c2 3e 7f 18 66 3e c1 e1 db 3e 2b d9 42 be
       0.37939915 0.22470282 0.42945674 -0.19028156
0000a0 9a bd a1 3e b4 67 9a 3e 34 f8 85 bd 2a aa 4c be
       0.31589967 0.30157244 -0.065414816 -0.19986787
0000b0 c6 70 a2 3e 1b db 1b bd 17 69 a0 3e c3 27 a0 3e
       0.31726664 -0.038050752 0.31330177 0.31280336
0000c0 a9 50 8f 3e 75 0a b6 3e b1 16 90 bd be 23 d1 bd
       0.27991226 0.35554853 -0.07035578 -0.102118954
0000d0 ff 75 dc 3e 43 1b 73 bc 5a 0c a1 3e 8a 45 de bd
       0.43058774 -0.014838043 0.31454736 -0.10853107
0000e0 30 15 62 3e f9 e6 75 be e6 2d c8 3b 84 56 59 3e
       0.22078395 -0.2401389 0.006108987 0.2122441
0000f0 1e 57 8c 3e d0 49 43 bc cf 34 9a bd 00 88 f0 bd
       0.27410215 -0.011919454 -0.07529604 -0.1174469
000100 c4 d2 64 3e 32 b5 9f 3e 22 87 55 3e 97 04 4c 3e
       0.22346026 0.3119293 0.2085233 0.19923626
000110 7e 09 64 be b2 ff ab bd 0b db 95 3e b5 fb 78 3e
       -0.22269246 -0.083983794 0.2926868 0.24314769
000120 6c 24 00 be 1b 8e 7e 39 84 2c 6e 3e c3 f1 a6 3e
       -0.12513894 0.00024276266 0.23259169 0.32606325
000130 75 6b ae 3e d0 f4 53 3c 6c 6f 84 be ba 79 72 bc
       0.34066358 0.012936786 -0.25866258 -0.01479953
000140 71 fe a3 be 1d 35 50 be c8 87 85 3e 90 62 3d be
       -0.3203006 -0.20332761 0.26080155 -0.1849463
000150 5d 0f 55 be 78 a1 72 3e a4 02 b2 3e 92 b5 c0 3e
       -0.20806642 0.23694408 0.3476764 0.37638527
000160 da 7c a7 be 48 29 af 3e 0e a2 81 3e ea b8 d6 3e
       -0.32712442 0.34211183 0.2531895 0.41937953
000170 35 96 f0 3e fb 4c db bd 43 76 9c bd 5c dd 98 3e
       0.469896 -0.10708042 -0.07639744 0.29856384
000180 92 53 b1 3e 62 ca fa bd ff e2 87 be 93 05 90 3e
       0.34634072 -0.12245633 -0.26540372 0.28129253
000190 e7 98 c4 3e 70 0e a3 3e 99 46 9c 3e 4d 01 92 bd
       0.38397905 0.31846952 0.30522612 -0.07129154
0001a0 1c 20 4f 3e 82 98 b8 be 18 9f 6e 3d 93 a9 7b 3e
       0.20227093 -0.36053854 0.058257192 0.24576406
0001b0 35 f3 4c be d2 a3 9c 3e 14 ed 8c be 72 d6 88 be
       -0.20014651 0.30593735 -0.27524626 -0.2672611
0001c0 eb 16 ae be af 12 c2 3e 9f ee 66 3e ae ae 59 3e
       -0.3400186 0.3790488 0.22551964 0.21258041
0001d0 82 7a 43 be 57 b9 a7 3e 48 a3 27 bd 78 59 78 bd
       -0.19089702 0.3275859 -0.0409272 -0.0606322
0001e0 10 e5 a7 3d b8 a7 3c be 20 6f 82 be 19 6e c8 bc
       0.08197987 -0.18423355 -0.25475407 -0.024466561
0001f0 b4 a3 23 be 66 82 07 bd 74 6d 8e 3c 71 9f 20 3e
       -0.15980417 -0.033083342 0.017386176 0.15685822

StatefulPartitionedCall/sequential_1/dense_2/MatMul/ReadVariableOp:0 f4 [32, 128]
000000 8b 48 95 bd 65 29 88 3e d8 d2 7d 3e 64 b1 53 be
       -0.07289227 0.26594082 0.24787462 -0.20673138
000010 47 06 8e 3e fd 17 68 be 9f db 48 be aa 20 9a 3e
       0.27739164 -0.22665401 -0.19615029 0.30103046
000020 9b 5f 9d 3e 69 5f 6f 3e 68 9b 0f be 75 b0 9b be
       0.30737004 0.2337624 -0.14024127 -0.30408064
000030 f8 28 6d be cf 1c 6b 3e fb a5 58 3e 21 5c 6b be
       -0.2316016 0.22960208 0.21157067 -0.22984363
000040 2f 34 37 be 7f de 6a be 24 bc 69 be 42 9c 84 3e
       -0.17891 -0.22936438 -0.22825676 0.25900465
000050 d2 7a 84 3e 87 ae 81 be 8a 7e 8c be 33 1e ab 3e
       0.25874954 -0.25328466 -0.27440292 0.33421478
000060 92 6f 2f be 86 1c 84 bd 2a 2c 8a 3e 2b 02 6b 3e
       -0.17132404 -0.06450753 0.2698682 0.22950046
000070 de e1 64 bd 99 dc 8a 3e b4 d2 8d 3d 14 df 7e 3e
       -0.055879466 0.27121428 0.06924954 0.24889785
000080 99 16 8b 3e e7 a8 35 be e9 4b 87 3e 73 90 a5 3e
       0.27165678 -0.17740212 0.26425102 0.32336769
000090 06 66 96 3e 85 e3 74 3e 41 fa b9 3e ec 94 4b be
       0.29374713 0.23914917 0.3632374 -0.19881028
0000a0 b8 74 8b 3e d9 fc 87 3e 34 ec b2 bd 6f db 4c be
       0.27237487 0.26560095 -0.087364584 -0.20005582
0000b0 5f 66 88 3e 40 28 80 bd 33 95 87 3e a5 ea a3 3e
       0.26640603 -0.06257677 0.26481017 0.32014957
0000c0 73 8a 73 3e d7 6c 92 3e 19 78 57 be dc 2d 21 be
       0.23783283 0.28598663 -0.21041907 -0.1574015
0000d0 a6 8e c0 3e ef ff 54 bd b1 6b 90 3e 4c a5 04 be
       0.37608832 -0.05200189 0.28207162 -0.12953681
0000e0 a4 f6 6a 3e 2e 7b 93 be 4f 24 0b bd 49 fa 66 3e
       0.22945648 -0.28804916 -0.033970173 0.22556414
0000f0 ad d7 7e 3e 72 c8 74 bd 68 b9 f9 bd c2 c8 0c be
       0.24886961 -0.059761472 -0.121935666 -0.13748458
000100 e6 ac 84 3e bb 24 88 3e f4 ce 77 3e 9d 3b 54 3e
       0.2591316 0.26590523 0.2420004 0.20725866
000110 f2 fd 82 be cd 90 c6 bd 9b 57 8f 3e 29 61 7f 3e
       -0.2558437 -0.09695587 0.27996525 0.24939407
000120 f2 5e 29 be 7c 58 be bc 5f e6 6d 3e c2 b7 ae 3e
       -0.16540125 -0.023235552 0.23232411 0.3412457
000130 bf c0 9b 3e 90 51 3e 3c 3b fe 8d be a7 ed 99 bd
       0.3042049 0.011616126 -0.27733025 -0.07516032
000140 7e 01 8d be 8d 58 34 be af b8 73 3e f5 46 7e be
       -0.275402 -0.17611904 0.2380092 -0.24831755
000150 03 09 51 be ab f0 76 3e 5c 2c a6 3e 19 f1 a7 3e
       -0.20413594 0.24115245 0.3245572 0.3280113
000160 b8 d1 9d be c0 e7 9c 3e e1 7d 81 3e ff b3 a7 3e
       -0.30824065 0.3064556 0.2529135 0.32754514
000170 a5 66 b4 3e 84 1f 61 be c7 a4 de bd 07 aa 88 3e
       0.35234562 -0.21984679 -0.108712725 0.2669222
000180 d5 ee 8c 3e 29 cf 90 be ec 63 85 be cc 2e 92 3e
       0.27525964 -0.2828305 -0.26052797 0.28551328
000190 cc 65 a2 3e 1b 40 93 3e 13 e8 7a 3e 15 3d ac bd
       0.3171829 0.28759846 0.24502592 -0.08410088
0001a0 c3 dd 7e 3e e5 3a 8e be 6a 1f 56 3d c0 c8 7b 3e
       0.24889283 -0.27779308 0.052276053 0.24588299
0001b0 75 55 83 be be b4 99 3e 75 ae 90 be c3 1d 96 be
       -0.25651136 0.30020708 -0.282581 -0.2931958
0001c0 d2 05 aa be 66 f9 98 3e cb 5f 5e 3e 33 b2 69 3e
       -0.33207566 0.29877776 0.2171623 0.22821884
0001d0 52 96 52 be b0 47 7d 3e 89 74 aa bd c8 38 e6 bd
       -0.20565155 0.24734378 -0.083230086 -0.11241299
0001e0 50 c1 96 3d f7 bc 82 be 32 42 a8 be 68 77 ef bc
       0.0736109 -0.25534794 -0.32863003 -0.029231742
0001f0 6f bd 3c be 65 02 3f bd 71 b2 bb 3d 83 49 73 3e
       -0.18431638 -0.046633143 0.09164894 0.23758511
000200 85 d2 fc bd ea 87 0e be 8f 57 36 3e 29 d4 19 be
       -0.12344841 -0.13919035 0.17806838 -0.15022339
000210 61 e0 d1 bc 70 8b 84 3e c3 7e 26 3d d2 28 d1 bd
       -0.025619688 0.25887632 0.040648233 -0.10212864
000220 e0 6b eb bd b7 cd 28 3e a6 d4 06 be 6e d9 73 bd
       -0.11495185 0.16484724 -0.13167056 -0.05953353
000230 9d 3e 29 3e 23 d1 45 bc f5 af 55 be 3a 96 7b 3e
       0.16527791 -0.012073788 -0.20867904 0.24569026
000240 2e 23 7c 3e 9e 25 27 3e 6f 17 42 3e 07 b9 26 3e
       0.24622795 0.16322944 0.18954252 0.1628152
000250 05 4f 2a 3e 4e 71 ee bd 61 e3 59 3d 90 5d 0d 3e
       0.16631706 -0.11642705 0.05319536 0.13805223
000260 ac 5a 39 3e ba 54 3f be 9b 09 1e be 95 b0 e8 3d
       0.18100995 -0.18684664 -0.15433352 0.11361805
000270 02 d7 c0 bd c0 1e 12 be 55 61 9b bd 1a 6a 2f be
       -0.094160095 -0.14269543 -0.07586924 -0.17130318
000280 90 77 ba 3d 32 a8 1f be ea 80 79 3d 9a 85 38 3e
       0.09104836 -0.15591505 0.060913958 0.18019715
000290 70 85 5c bd 9c 42 a9 3b 2a 64 99 bc 44 03 2a bd
       -0.053838193 0.005165411 -0.01872452 -0.04150702
0002a0 d4 99 e5 3d c4 a8 61 3d 0c d2 10 bd 1b 59 9a bc
       0.11210981 0.055092588 -0.035356566 -0.018841317
0002b0 c9 ed bb bd 4b 30 0b bc b6 a7 24 3e c9 f0 04 3a
       -0.09176213 -0.008495401 0.16079602 0.000507128
0002c0 95 bf 74 3d ef df 56 3d 0c cd 51 3e 41 72 9c bd
       0.05975302 0.052459653 0.20488375 -0.0763898
0002d0 99 8d 15 3e 73 ae 00 3e 5e 3b 75 bd d7 89 02 3e
       0.14604796 0.12566547 -0.05987107 0.12747894
0002e0 93 db ba bd e7 bb 1a bd f6 f0 45 be 42 6c 12 3e
       -0.09123912 -0.037776854 -0.193302 0.1429911
0002f0 32 ba 0f 3e 05 a8 8a bc 33 2e 30 be a3 c0 6a 3b
       0.14035872 -0.016925821 -0.17205124 0.0035820387
000300 55 9d db 3d ee 44 97 3d 6f b8 9a bd a2 84 44 3e
       0.10723368 0.07386194 -0.07554709 0.1919122
000310 1d 69 2a bd ee 0d 78 3d 7f cc 8e bd f2 b6 f4 3c
       -0.04160415 0.06056016 -0.06972598 0.029872391
000320 d4 2d 1e bd 1d 6d 33 be f2 dd 24 bb cc ef a0 3d
       -0.038617924 -0.17522092 -0.0025156704 0.078582376
000330 60 99 a2 bd 5e fb d7 bd 71 6f 84 bc 58 06 98 bc
       -0.0793941 -0.10545991 -0.01616642 -0.018557712
000340 65 9a d1 3d 5c ee b4 bc 44 47 75 3d 1f 80 eb bd
       0.102345265 -0.022086315 0.059882417 -0.114990465
000350 14 7e d5 bd 61 15 26 3c ec 4c ff 3d 6d 08 ec bd
       -0.10424438 0.010136933 0.124658436 -0.115250446
000360 65 10 74 3e e0 f4 30 3d 39 a9 17 bd 61 6a b8 bd
       0.23834379 0.04320228 -0.037026618 -0.09004665
000370 d5 ca 3c be 97 09 68 3e 58 21 7b bc 10 9a eb bd
       -0.1843675 0.22659908 -0.015327774 -0.115039945
000380 2d 08 ae 3d 8d 8f 25 3e 62 65 71 3e 25 ae 23 3e
       0.08497653 0.16168042 0.2357383 0.159844
000390 9a ba d2 3d a3 36 11 be 3c 21 d8 3c d6 3c c6 bd
       0.10289498 -0.14180999 0.026383035 -0.09679572
0003a0 eb ae ee bd 74 ac 13 3e 58 de 3c 3d 5d 8f 09 be
       -0.11654457 0.14421254 0.04611048 -0.13433595
0003b0 56 a2 06 3d 1b 3a 74 3d e3 07 81 bb 24 39 7a bc
       0.03286966 0.059625726 -0.0039377077 -0.015272412
0003c0 03 48 bd bc ac 05 df 3d 54 13 c7 bd e3 44 da ba
       -0.023105627 0.10889754 -0.097204834 -0.001665261
0003d0 36 f7 b9 3d b4 43 17 3c eb df 52 bd 6b 3e dd bb
       0.09080355 0.00923245 -0.051483076 -0.0067518256
0003e0 09 fa 35 be 87 bc e1 3d df 41 ce bd 63 3b 98 bd
       -0.17771162 0.11022287 -0.10071158 -0.07433202
0003f0 b5 fc c9 bd eb 93 2e be 8e 03 98 3d 99 d6 c4 bc
       -0.09862653 -0.17048614 0.07422553 -0.02402811

StatefulPartitionedCall/sequential_1/dense_2/BiasAdd/ReadVariableOp:0 f4 [128]
000000 2c 1d ac bc 53 1d 13 bd 98 92 59 bd f3 de 04 bd
       -0.021010004 -0.035916638 -0.05311832 -0.032439183
000010 b8 81 5c bd 60 fb 10 3e 94 05 d3 3d 44 b2 ae 3b
       -0.053834647 0.14158392 0.10303798 0.0053313095
000020 bc 4c 9a bc 85 24 9f bd 93 b4 30 bc a1 93 c0 3d
       -0.018835418 -0.077706374 -0.01078524 0.09403158
000030 1c de e9 3d eb 07 85 bd 41 e5 cb bd 83 11 2a 3e
       0.11419317 -0.06495651 -0.09955836 0.16608243
000040 1a b7 2b 3e 59 a1 b7 3d 66 24 e1 3d ac 6a 4f bd
       0.16769066 0.089663215 0.109932706 -0.05063884
000050 49 be 4d bd bf 9d bc 3d 7a e1 e8 3d 98 e3 52 bd
       -0.0502303 0.09209775 0.11371131 -0.05148658
000060 b7 c4 e6 3d 82 12 93 bc d8 3b 16 bd 3a 86 de bc
       0.11267989 -0.017953161 -0.036678165 -0.027163614
000070 34 d9 b8 bc f5 a6 8e bd 00 00 00 00 fe a0 3f bd
       -0.022564508 -0.06965438 0.0 -0.046784393
000080 15 34 58 bb a7 6e d7 bc ec 2e a9 bd e8 2b 6e bd
       -0.0032990028 -0.02629788 -0.08260903 -0.05814734
000090 8d e0 09 bd ba 2a 84 bd 21 b1 82 3c b6 10 81 bc
       -0.033661414 -0.06453462 0.015953602 -0.015755039
0000a0 68 5f be bc 7c da 24 bd f7 e7 84 bc 74 84 bc bc
       -0.023238853 -0.040247425 -0.01622389 -0.023012377
0000b0 c9 b1 22 bc f4 50 94 bc 54 e2 17 bd d0 20 80 bd
       -0.009930083 -0.018105008 -0.037081078 -0.062562585
0000c0 f8 b8 f8 bc 98 0f 0a bd 61 8a ee 3d 6a f2 3f bd
       -0.030361637 -0.033706278 0.116474874 -0.046862043
0000d0 91 3d e5 bb cf 5c c7 bc 83 a7 55 bd 1d 9e bd bc
       -0.0069958647 -0.024336247 -0.052161705 -0.023146683
0000e0 07 d6 65 bd c6 a2 f3 3d 94 ce 99 bc 71 ea 84 bd
       -0.056112316 0.11896281 -0.018775262 -0.06490029
0000f0 21 80 2e bd 6a 26 f1 bc 23 e3 08 bd 1c 57 96 bc
       -0.042602662 -0.029437263 -0.03341974 -0.018352084
000100 8c 58 96 bd 61 87 36 bd 89 ad 84 bd fe 54 85 bb
       -0.07341108 -0.0445627 -0.06478412 -0.0040689697
000110 e6 c9 6c 3d c0 bc 86 bc ec 55 1b bd 4c ff 4d bd
       0.057809733 -0.016447425 -0.03792374 -0.0502923
000120 13 08 00 bd 75 6e 65 bc 98 44 e4 bc 8d bd 70 bd
       -0.0312577 -0.014003386 -0.02786474 -0.05877452
000130 2d 27 f8 3c 00 00 00 00 40 93 ea 3d 88 ac 16 bd
       0.030292118 0.0 0.11453867 -0.036785632
000140 84 b4 ef 3d 3d de 0b 3e 55 6c b9 bc 2d 4c ee 3d
       0.117043525 0.13658996 -0.022634665 0.11635623
000150 d3 c7 13 3e 76 cc 4f bc b0 a1 96 bd 05 af de 3c
       0.14431696 -0.012683025 -0.07355058 0.027183065
000160 ad a1 f1 3d da 91 0c bc a7 d9 99 bd 48 85 3c bd
       0.11798415 -0.008579696 -0.07512217 -0.046025544
000170 4e 39 0d bd b8 57 b9 3d 71 13 cc bc 67 6e 2f bd
       -0.034478478 0.09049934 -0.024911614 -0.042829897
000180 ba 37 12 bd ca 6e 13 3e 8c 99 ff 3d a7 e4 a9 bd
       -0.035697676 0.14397731 0.124804586 -0.08295565
000190 9e b5 3d bc d7 a6 fd 3a 49 20 c1 bc 9c 69 5a bc
       -0.011578945 0.001935209 -0.023574965 -0.013330843
0001a0 4f b3 c9 bd 0f 0e e1 3d 56 b1 8f 3a 51 86 36 bd
       -0.098486535 0.109890096 0.0010962884 -0.044561688
0001b0 27 00 06 3e 21 53 9b bd fb d8 e4 3d 29 64 ed 3d
       0.13085996 -0.07584215 0.11174198 0.1159137
0001c0 7f f7 a1 3d 61 2a 11 bd c2 31 98 bc 6b 14 a0 bb
       0.07908534 -0.035440806 -0.018578414 -0.0048852465
0001d0 c0 ef b2 bc 23 7d 0a bd 1d ac db bc da 0c cb bc
       -0.021842837 -0.033810746 -0.026815468 -0.024786402
0001e0 00 00 00 00 f2 98 b5 3d 8d 15 cf 3d 06 c3 14 bc
       0.0 0.08867063 0.10111532 -0.0090797
0001f0 25 04 c1 bc c4 92 2e bc 1a d1 89 bd 77 ea b6 bd
       -0.023561547 -0.010655109 -0.06729336 -0.08931439

StatefulPartitionedCall/sequential_1/conv1d_1/Conv1D/ExpandDims_1:0 f4 [32, 1, 1, 3]
000000 f9 95 85 be 7e fb a4 3d cf b2 2a 3e 79 07 5a 3e
       -0.26090983 0.08055781 0.16669773 0.21291913
000010 c8 61 2f be bf db 63 3e 0f e8 af 3d 56 49 68 3e
       -0.17127144 0.22251795 0.085891835 0.22684225
000020 73 95 b9 3c 59 55 d5 be 77 b6 c8 3e c7 5b 09 3d
       0.02265427 -0.41666678 0.3920171 0.03353479
000030 55 e9 23 3e 54 94 9d 3e 6b c5 26 be f0 d3 7a bd
       0.16006978 0.30777228 -0.16286246 -0.061237276
000040 f8 88 27 3e 5c ea 5f be a1 af 88 be 36 a6 bf 3e
       0.16360843 -0.21866745 -0.26696494 0.37431496
000050 73 d7 fe 3d 05 c6 bf 3e 05 5b b7 be 7a 85 05 bd
       0.124434374 0.37455764 -0.3581163 -0.032597996
000060 f2 c9 95 3e 47 a1 b0 3e 6c e5 81 be 29 84 a9 bd
       0.29255635 0.34498045 -0.25370347 -0.08277161
000070 91 3c 3b 3e e7 3f 2b bd 2b 6e 36 be 45 cf f7 bd
       0.18284823 -0.04180899 -0.17815463 -0.121000804
000080 3b b6 38 3e 67 91 40 be 5f b2 7b be ec a6 5f 3e
       0.18038265 -0.18805467 -0.24579762 0.2184102
000090 b2 6a ac be 2f 14 8a 3e 0b 23 6d 3e a1 12 0a 3d
       -0.33675152 0.26968524 0.23157899 0.033709172
0000a0 8e b7 39 bd 95 09 90 3d 64 85 75 3d ad b0 5a 3e
       -0.045341067 0.070330776 0.059941664 0.21356459
0000b0 9f d2 6b be e1 e5 c0 bd b9 2b b9 3e 10 e7 ce bd
       -0.23029564 -0.09418846 0.3616617 -0.101026654
0000c0 5d f5 43 ba 7d b5 1d 3d a8 6f 96 be d1 c6 c0 be
       -0.00074752216 0.03850316 -0.29382062 -0.37651685
0000d0 39 55 79 3e 16 48 10 bb c0 9e b1 bb 1d 68 5c bd
       0.24348916 -0.0022015623 -0.005420536 -0.053810228
0000e0 c4 d8 9d 3d 8f ea 28 bd ec 18 69 bd cd ba c1 bd
       0.077073604 -0.041239318 -0.056908533 -0.094594575
0000f0 60 e1 a1 bc 63 54 87 3e e9 aa bf bd 38 7d 9e be
       -0.019760787 0.2643157 -0.093587704 -0.3095491
000100 30 c9 88 bd 5c a6 b4 3d 3d 1a b9 be c5 92 6e 3e
       -0.066789985 0.08820793 -0.3615283 0.23298176
000110 dd 92 3d 3e 7c 07 9f 3e 46 01 1c be 04 54 93 3e
       0.18513055 0.31060398 -0.15234861 0.28775036
000120 33 26 bd bd d8 a1 e2 3d c9 05 a3 be fc 5d e2 bd
       -0.092358015 0.110660255 -0.3184035 -0.11053082
000130 ba f4 69 be fb 52 94 3e 9a e9 a0 3e f9 03 4d bd
       -0.22847262 0.2896956 0.31428224 -0.050052617
000140 e3 55 05 3e dd 1b 0b 3e b3 ad 80 3d 7f dd 8f 3e
       0.13021044 0.13584848 0.062831305 0.28098676
000150 5b 84 59 be 7a 68 86 3e 49 dc 8f 3e 57 7d 49 3e
       -0.21241896 0.26251584 0.28097752 0.1967672
000160 5a be fb bd 39 d0 87 be 87 fa 33 3d a0 27 58 bd
       -0.12292166 -0.2652605 0.043940093 -0.052772164
000170 e7 e8 16 be d9 2e 46 3e c5 e7 db bd 31 36 60 3e
       -0.14737283 0.19353808 -0.10737566 0.21895672
