onnx-microservice/specific-microservice/model/onnx-model/acceleration_model.onnx (onnx, 20637 bytes, 5 tensors)

sequential/dense_1/MatMul/ReadVariableOp:0 f4 [128, 1]
0.23832548 -0.2258649 0.157445 -0.2803889 -0.22720432 -0.17513753 0.32956406 0.3309847
0.14105769 -0.32608974 -0.17089963 0.24820143 0.35452533 0.15606683 -0.3502567 0.23553108
0.25676054 0.23817597 -0.103574894 -0.035028335 0.29248095 0.35904044 0.21215126 -0.2523185
-0.13077846 -0.09014135 -0.08264729 0.2559653 0.3536806 -0.33907667 0.20040073 0.23254499
-0.19166003 -0.014535047 -0.11928181 -0.15001702 -0.050177034 0.160464 -0.31758058 -0.19716354
0.095799565 0.19644718 -0.21795817 0.08539501 0.30372506 0.25714624 -0.074551485 0.32574344
0.3226311 0.26741633 0.20361888 -0.11347988 0.19598329 -0.080180354 -0.0020238492 -0.29698157
0.41984564 -0.17237775 0.33388877 0.29910046 0.3762672 0.43184137 -0.24775964 0.06644247
0.358132 0.21111794 0.13865483 -0.023483578 0.3336343 -0.18916938 -0.17103311 0.3857189
-0.20159869 -0.05638581 -0.06534644 -0.27981648 -0.1846294 -0.018787293 -0.30696702 0.28095922
-0.24779266 -0.0447647 -0.20360523 -0.18594992 0.29271948 0.3595508 0.21471196 0.081717014
0.16447534 0.31440118 0.33520168 0.2701814 -0.3079487 -0.0013969705 -0.033042178 0.20324734
-0.09042759 -0.010073406 -0.06760214 0.33787307 0.2679758 -0.109969705 -0.10621632 -0.25783274
-0.20162581 -0.05610044 0.20919599 -0.15176407 -0.19248104 -0.1164518 -0.17394426 0.16179548
0.25816482 0.14038536 0.15903872 -0.13500552 0.26292038 0.38007453 0.24021243 -0.13115767
-0.36687243 0.350414 -0.2203413 0.14972876 -0.037229747 -0.124250904 0.32812858 -0.28735688
00000000: 980b 743e 2149 67be 4339 213e 228f 8fbe
00000010: 40a8 68be 4157 33be 9fbc a83e d476 a93e
00000020: 6d71 103e 3cf5 a6be 5000 2fbe 8428 7e3e
00000030: 5884 b53e fccf 1f3e d954 b3be 0f2f 713e
00000040: 1e76 833e 67e4 733e 131f d4bd df79 0fbd
00000050: 10c0 953e 26d4 b73e 2e3e 593e e42f 81be
00000060: caea 05be 079c b8bd fb42 a9bd e20d 833e
00000070: a015 b53e 759b adbe d935 4d3e 4620 6e3e
00000080: 8742 44be 6824 6ebc 064a f4bd 109e 19be
00000090: 6f86 4dbd ad50 243e ec99 a2be 3de5 49be
000000a0: 9032 c43d 7329 493e 6d30 5fbe 94e3 ae3d
000000b0: da81 9b3e aca8 833e 73ae 98bd d8c7 a63e
000000c0: e72f a53e cbea 883e 7881 503e 2468 e8bd
000000d0: d8af 483e 9935 a4bd 8ea2 04bb f80d 98be
000000e0: 02f6 d63e cb83 30be 78f3 aa3e b223 993e
000000f0: 18a6 c03e 501a dd3e b4b4 7dbe fd12 883d
00000100: 145d b73e 4d2f 583e 88fb 0d3e a260 c0bc
00000110: 1dd2 aa3e 9eb5 41be 4e23 2fbe f37c c53e
00000120: e36f 4ebe cff4 66bd 5bd4 85bd 1b44 8fbe
00000130: 7d0f 3dbe cfe7 99bc c82a 9dbe e3d9 8f3e
00000140: 5cbd 7dbe 315b 37bd e47d 50be a869 3ebe
00000150: 54df 953e 0b17 b83e 74dd 5b3e 405b a73d
00000160: 396c 283e 31f9 a03e 8e9f ab3e 3755 8a3e
00000170: 74ab 9dbe 8d1a b7ba 3c57 07bd 1220 503e
00000180: 1a32 b9bd ed0a 25bc fe72 8abd b3fd ac3e
00000190: 2034 893e cc37 e1bd f187 d9bd a702 84be
000001a0: ff76 4ebe 93c9 65bd 7937 563e 0a68 1bbe
000001b0: c019 45be 487e eebd 721e 32be b7ad 253e
000001c0: 2e2e 843e 2ec1 0f3e 0cdb 223e e33e 0abe
000001d0: 809d 863e 2199 c23e 3ffa 753e 324e 06be
000001e0: b4d6 bbbe 7769 b33e 26a1 61be 7f52 193e
000001f0: 387e 18bd 4277 febd 7800 a83e 7120 93be

sequential/dense/MatMul/ReadVariableOp:0 f4 [32, 128]
0.19334763 -0.11515348 0.34072244 -0.37711546 -0.14608127 -0.1481642 0.41480386 0.22039057
0.05720931 -0.11930765 0.05043771 0.06548844 0.3543107 0.0059179664 -0.10207266 0.023195622
0.37512308 -0.01163277 -0.1732062 -0.07540949 0.17378302 0.00617395 0.061360046 -0.39098507
-0.15360315 0.15831192 -0.008178618 0.34550858 0.2902764 -0.15311326 0.15498543 0.07066201
-0.07034407 -0.16061027 0.046695586 0.05340748 0.16092812 0.19680804 -0.041406 -0.28313872
0.011991337 0.2955402 -0.04172958 0.14045122 0.027402755 0.06779943 -0.021868564 0.33675775
0.31030077 0.20258825 0.019813994 -0.3015547 0.19072047 0.11727336 -0.072710045 -0.07215584
0.3425307 -0.17447203 0.0006554771 0.21693249 0.11528198 0.18224894 -0.302719 0.1292306
0.13853282 0.30219927 0.08118911 0.010535137 0.29446384 -0.078744374 -0.1474483 0.24953943
0.17501935 -0.017734917 -0.10972751 -0.08773151 -0.0069787903 0.10167801 0.03441954 0.19847913
-0.33431205 0.065287426 0.024849035 -0.20084903 0.08590243 0.448918 0.33499774 0.00789321
0.31246498 0.1403441 0.20684941 0.026454456 0.0068864357 -0.05929979 0.04564607 0.3192149
-0.042037584 -0.16230081 -0.06709126 0.08704401 -0.0022712594 -0.13433446 -0.06286438 -0.070259854
0.03782456 -0.18798827 0.25368264 0.060836524 -0.1611583 -0.16138992 -0.1912512 0.36300933
0.2608501 0.28579915 0.21647827 0.097599424 0.41672868 0.18737406 0.16461502 0.13347429
-0.32298985 0.08621919 -0.15939856 0.41108376 -0.051033244 0.12526722 0.21651798 -0.27670422
-0.1253266 0.050435655 0.16455276 0.09587524 0.028229047 -0.0063581686 -0.13149409 -0.119043894
0.16506183 0.13745224 0.10163425 -0.054541934 0.063995995 -0.016421542 0.15505931 -0.07340269
-0.12243678 0.026440753 -0.20978813 -0.1574825 -0.13398433 -0.1244708 -0.17502731 0.15266076
-0.19675969 -0.0669893 0.015066589 -0.10964579 -0.03449315 0.21128386 0.09705494 0.040169265
0.0026435188 -0.029064268 0.1846666 0.17125875 -0.11250796 -0.05036642 -0.00058153085 -0.015061484
-0.08466348 0.080529585 0.27655187 0.028867155 0.0370473 0.03311831 0.13625063 0.018888
-0.19209479 0.010682706 0.05524738 0.23474346 -0.113090865 -0.20514628 -0.10449854 0.096291974
0.051571693 0.18597293 -0.11184634 0.0007447144 -0.064764805 0.115622476 0.07224066 -0.051199615
-0.032770183 0.10370312 0.17330246 -0.12138744 0.06649052 0.0016768925 0.12564343 0.14768049
0.02753216 -0.17066047 -0.08571483 0.26762548 0.015933286 -0.17177479 0.040771052 -0.1886699
0.19778281 0.004104002 -0.00043661782 0.20876543 0.12734415 -0.015642991 -0.119886704 -0.0127313165
0.12790367 -0.103735626 -0.08893672 0.09084478 -0.080227815 -0.0010611843 -0.089632876 -0.11968068
-0.1805524 -0.17039268 -0.12936655 0.12230411 -0.1173596 -0.16074277 0.084328316 0.15469968
-0.09150177 -0.030378863 0.12365495 0.11768061 0.061142784 -0.15044384 0.1396497 -0.14567766
0.07547941 -0.019091167 -0.07950571 0.05086356 -0.048966378 -0.032017466 0.15531869 0.017451689
0.0053494824 0.06322258 -0.03462932 0.22989404 -0.122591354 -0.15886456 0.016562602 0.021324072
00000000: ecfc 453e 96d5 ebbd 2c73 ae3e 4715 c1be
00000010: 5496 15be 5bb8 17be 2c61 d43e 11ae 613e
00000020: 4f54 6a3d 9257 f4bd c697 4e3d ce1e 863d
00000030: 3668 b53e 80eb c13b 790b d1bd bf04 be3c
00000040: 2210 c03e 6097 3ebc f75c 31be 4a70 9abd
00000050: 2df4 313e d94e ca3b ac54 7b3d 322f c8be
00000060: 254a 1dbe 851c 223e 9cff 05bc 80e6 b03e
00000070: 1c9f 943e b9c9 1cbe 80b4 1e3e 3eb7 903d
00000080: 8d10 90bd 0577 24be df43 3f3d cdc1 5a3d
00000090: 57ca 243e 0c88 493e 5699 29bd 8ff7 90be
000000a0: 5077 443c 0c51 973e a3ec 2abd 72d2 0f3e
000000b0: be7b e03c 6dda 8a3d b425 b3bc 836b ac3e
000000c0: bedf 9e3e 4b73 4f3e f550 a23c 6165 9abe
000000d0: 3a4c 433e 042d f03d 01e9 94bd 71c6 93bd
000000e0: 2f60 af3e cca8 32be 53d4 2b3a 8d23 5e3e
000000f0: f518 ec3d 779f 3a3e fcfd 9abe 0755 043e
00000100: 8cdb 0d3e ddb9 9a3e 7a46 a63d 919b 2c3c
00000110: f7c3 963e bb44 a1bd b0fc 16be 4487 7f3e
00000120: 4638 333e d148 91bc d1b8 e0bd 94ac b3bd
00000130: 56ae e4bb 8f3c d03d 81fb 0c3d 1d3e 4b3e
00000140: f32a abbe 6ab5 853d 3490 cb3c 5eab 4dbe
00000150: 9ded af3d 95d8 e53e d384 ab3e 8652 013c
00000160: 69fb 9f3e 5db6 0f3e 55d0 533e 04b7 d83c
00000170: 9ca7 e13b 56e4 72bd 60f7 3a3d 2370 a33e
00000180: 9a2f 2cbd 2f32 26be 2467 89bd 2144 b23d
00000190: 69d9 14bb f98e 09be 0abf 80bd 66e4 8fbd
000001a0: eded 1a3d ff7f 40be b1e2 813e b82f 793d
000001b0: ae06 25be 6643 25be 5bd7 43be 5cdc b93e
000001c0: 258e 853e 4454 923e 7bac 5d3e 35e2 c73d
000001d0: 765d d53e fcde 3f3e d790 283e 7cad 083e
000001e0: ed5e a5be b093 b03d 6039 23be 9279 d23e
000001f0: 3c08 51bd 0d46 003e e4b6 5d3e 2dac 8dbe
00000200: 9e55 00be 9e95 4e3d 8580 283e 3d5a c43d
00000210: 9a40 e73c 2f58 d0bb 63a6 06be 49cd f3bd
00000220: f805 293e 48c0 0c3e 9e25 d03d 5d67 5fbd
00000230: 5510 833d 7886 86bc dec7 1e3e 2654 96bd
00000240: 22c0 fabd 479a d83c b3d2 56be 1843 21be
00000250: 3033 09be 8cea febd 5c3a 33be 1a53 1c3e
00000260: 5f7b 49be b031 89bd dbd9 763c f98d e0bd
00000270: b048 0dbd cc5a 583e bec4 c63d 8788 243d
00000280: e33e 2d3b 3018 eebc 3e19 3d3e 745e 2f3e
00000290: 936a e6bd 054d 4ebd e071 18ba 71c4 76bc
000002a0: 0c64 adbd b2ec a43d 3598 8d3e d07a ec3c
000002b0: e9be 173d 11a7 073d 4985 0b3e 02bb 9a3c
000002c0: 7fb4 44be 8406 2f3c 144b 623d 9760 703e
000002d0: 2f9c e7bd de11 52be 5503 d6bd ba34 c53d
000002e0: d73c 533d b06f 3e3e b20f e5bd f038 433a
000002f0: 69a3 84bd 7acb ec3d e9f2 933d b0b6 51bd
00000300: 073a 06bd 4d62 d43d 3376 313e fa99 f8bd
00000310: 2f2c 883d 2dcb db3a aca8 003e 8e39 173e
00000320: 208b e13c 9ec1 2ebe 428b afbd 3506 893e
00000330: 8686 823c bbe5 2fbe 8cff 263d af32 41be
00000340: 9487 4a3e dd7a 863b dae9 e4b9 9bc6 553e
00000350: 8166 023e bb25 80bc 2987 f5bd 0397 50bc
00000360: 2ef9 023e 5873 d4bd 7424 b6bd d40c ba3d
00000370: 7b4e a4bd 7017 8bba 7191 b7bd 251b f5bd
00000380: bae2 38be 6b7b 2ebe aa78 04be 947a fa3d
00000390: 3b5a f0bd c199 24be 53b4 ac3d 9869 1e3e
000003a0: 4865 bbbd 18dd f8bc ce3e fd3d 8802 f13d
000003b0: db70 7a3d f30d 1abe 5500 0f3e 862c 15be
000003c0: f394 9a3d 1465 9cbc e4d3 a2bd 4f56 503d
000003d0: f890 48bd bf24 03bd dd0b 1f3e d8f6 8e3c
000003e0: b64a af3b d77a 813d 79d7 0dbd 5869 6b3e
000003f0: 2d11 fbbd 64ad 22be 4bae 873c d2af ae3c

sequential/dense/BiasAdd/ReadVariableOp:0 f4 [128]
-0.051972173 0.17136738 -0.033142 0.10825687 0.1444731 -0.037514344 -0.03828212 -0.07930595
-0.03711642 0.097027525 -0.013592395 -0.009118634 -0.025578458 0.0 0.122348815 -0.030531267
-0.0180757 -0.009290338 -0.021855373 -0.02254881 -0.025029156 -0.04883407 -0.006843569 0.1298124
-0.012723421 -0.013490708 -0.029309113 -0.040316474 -0.07407356 0.120076165 -0.10698915 -0.09501092
-0.018985782 -0.014636977 0.11937111 0.094879605 -0.02542283 0.0036026395 0.107478976 0.14340226
0.0 -0.0886844 0.14308463 0.0 -0.03505754 0.0049374937 -0.022070372 -0.0019760518
-0.07667006 -0.04529879 -0.041155536 0.15519516 -0.015850473 -0.02467376 0.04373912 0.11745237
-0.04293142 0.087195665 -0.00084069814 -0.03975302 -0.014750612 -0.04382374 0.15481064 0.04211776
-0.01166945 -0.07756958 -0.047182 -0.008404977 -0.022230716 -0.019009396 0.0 -0.021614628
0.0 -0.022996996 -0.022193525 0.12503964 -0.016317956 -0.015344876 0.10214044 -0.028446361
0.11146672 -0.03634218 0.109938696 0.15916346 0.009761508 -0.041896727 0.013140073 -0.009207013
-0.029056227 0.004438854 -0.016146619 -0.078101166 0.11546955 -0.007960364 -0.009362819 -0.019544816
-0.026804117 -0.016917475 0.0 -0.049655102 -0.06159239 -0.022257842 -0.028884312 0.11736406
0.08300032 -0.013368336 -0.10644243 0.0 0.15696733 -0.013684379 0.12526986 -0.051738504
-0.072653435 -0.024183717 -0.01942318 -0.02244618 -0.07556297 -0.013131753 -0.06493344 -0.02776735
0.113877505 -0.0016048369 0.0990859 0.010551595 0.0 -0.0051220283 -0.07234519 0.11456189
00000000: c6e0 54bd ee7a 2f3e e8bf 07bd c7b5 dd3d
00000010: c2f0 133e a4a8 19bd b6cd 1cbd 286b a2bd
00000020: 6307 18bd 5eb6 c63d a3b2 5ebc 5366 15bc
00000030: ea89 d1bc 0000 0000 0492 fa3d b51c fabc
00000040: 7e13 94bc 8036 18bc 0a0a b3bc 48b8 b8bc
00000050: f209 cdbc 3c06 48bd 0540 e0bb 8bed 043e
00000060: e575 50bc 2108 5dbc aa19 f0bc e322 25bd
00000070: e1b3 97bd 7eea f53d 211d dbbd 1695 c2bd
00000080: 1288 9bbc eecf 6fbc d778 f43d 3d50 c23d
00000090: 8a43 d0bc 431a 6c3b f01d dc3d 0bd8 123e
000000a0: 0000 0000 2ba0 b5bd c784 123e 0000 0000
000000b0: 7f98 0fbd b3ca a13b edcc b4bc a680 01bb
000000c0: 3105 9dbd 398b 39bd b592 28bd 7beb 1e3e
000000d0: dad8 81bc a020 cabc cb27 333d de8a f03d
000000e0: dbd8 2fbd a493 b23d 4c62 5cba 10d4 22bd
000000f0: 8dac 71bc 8680 33bd ae86 1e3e ac83 2c3d
00000100: 3931 3fbc cddc 9ebd ea41 41bd 07b5 09bc
00000110: 311d b6bc 98b9 9bbc 0000 0000 2911 b1bc
00000120: 0000 0000 3264 bcbc 32cf b5bc 640a 003e
00000130: 3cad 85bc 1369 7bbc 022f d13d 5808 e9bc
00000140: aa48 e43d 8adb 14bd 8a27 e13d bffb 223e
00000150: bbee 1f3c e79b 2bbd 7649 573c 03d9 16bc
00000160: 5307 eebc ce73 913b ea45 84bc 81f3 9fbd
00000170: 4d7b ec3d 306c 02bc 8266 19bc 731c a0bc
00000180: 4f94 dbbc 8496 8abc 0000 0000 2663 4bbd
00000190: 4d48 7cbd 1456 b6bc cb9e ecbc 915c f03d
000001a0: 12fc a93d dd06 5bbc 7dfe d9bd 0000 0000
000001b0: 0bbc 203e 7234 60bc be46 003e c1eb 53bd
000001c0: 53cb 94bd ee1c c6bc 5c1d 9fbc 0de1 b7bc
000001d0: c2c0 9abd 9026 57bc d3fb 84bd 5b78 e3bc
000001e0: 9c38 e93d 6459 d2ba 8ced ca3d 99e0 2c3c
000001f0: 0000 0000 b0d6 a7bb b729 94bd 6d9f ea3d

sequential/conv1d/Conv1D/ExpandDims_1:0 f4 [32, 1, 1, 3]
-0.22973707 0.22897711 0.021950187 -0.01779657 -0.22307469 0.1088136 -0.38720232 0.20909497
0.25829226 -0.2314513 0.30756423 -0.1626309 0.06739675 -0.09047834 -0.23297746 -0.16698042
0.3145153 0.059074886 -0.073020525 0.29039276 -0.17995149 0.025537098 0.3145956 -0.25732452
-0.1863886 0.21683392 -0.27213448 0.0020287696 -0.06835194 0.1301266 -0.13720421 0.24330422
-0.26647592 0.24327752 -0.2941672 -0.1829227 -0.105572864 0.23839414 0.3025961 0.34354138
-0.1746289 0.015646642 0.21169712 -0.23455359 0.3063184 0.1281786 0.17006718 -0.23570587
-0.14328943 -0.10999661 -0.19733751 0.26049504 -0.30518422 -0.038388297 -0.17333706 -0.24518771
-0.2970977 0.27530238 0.30953428 -0.07886727 0.39679277 -0.30534557 -0.011162514 -0.29328665
0.18639888 0.12662816 0.10685701 -0.22037426 0.13184366 0.3635806 0.20404701 0.13194355
-0.44609123 0.33352154 0.011308224 -0.063330285 -0.24314746 0.18139319 -0.017793804 0.30149552
-0.21576989 0.28933778 0.38173762 -0.097488575 -0.1930958 0.051764354 -0.14755496 0.3567272
-0.33698758 -0.028388185 -0.2701853 0.38662001 0.14544219 0.32395524 -0.3878719 -0.050149746
00000000: 3240 6bbe fa78 6a3e e1d0 b33c 1dca 91bc
00000010: b16d 64be aad9 de3d 623f c6be fe1c 563e
00000020: e23e 843e 9201 6dbe 0f79 9d3e b788 26be
00000030: 4f07 8a3d b54c b9bd a591 6ebe eafc 2abe
00000040: 2608 a13e 82f8 713d c98b 95bd 5cae 943e
00000050: 3445 38be 2d33 d13c ad12 a13e 0ac0 83be
00000060: a7dc 3ebe b609 5e3e 3655 8bbe 1bf5 043b
00000070: 1afc 8bbd e83f 053e 437f 0cbe be24 793e
00000080: 886f 88be be1d 793e 159d 96be 1750 3bbe
00000090: 9636 d8bd 981d 743e e0ed 9a3e a8e4 af3e
000000a0: ebd1 32be 632d 803c 21c7 583e d12e 70be
000000b0: c4d5 9c3e 4041 033e 1726 2e3e e15c 71be
000000c0: 77ba 12be e745 e1bd d812 4abe 9b5f 853e
000000d0: 1b41 9cbe 0c3d 1dbd 457f 31be 7d12 7bbe
000000e0: 311d 98be 6ff4 8c3e 477b 9e3e 2a85 a1bd
000000f0: 6c28 cb3e 4156 9cbe fae2 36bc ab29 96be
00000100: 59df 3e3e d0aa 013e d9d7 da3d caa9 61be
00000110: 0602 073e 3d27 ba3e b3f1 503e 361c 073e
00000120: 1266 e4be 56c3 aa3e 2146 393c 4fb3 81bd
00000130: a6fb 78be 23bf 393e 50c4 91bc 9f5d 9a3e
00000140: c8f2 5cbe 1524 943e 1d73 c33e 17a8 c7bd
00000150: e8ba 45be dc06 543d a618 17be f3a4 b63e
00000160: a389 acbe 578e e8bc ba55 8abe 0ff3 c53e
00000170: ccee 143e 76dd a53e 2597 c6be d269 4dbd

const_fold_opt__55 f4 [1, 32, 1]
0.05699055 0.1441256 -0.10824199 -0.019128906 0.09888298 0.09273029 -0.030826941 -0.06485406
0.036253333 0.14220865 -0.0022718427 -0.14938562 -0.06094536 0.065029114 0.13435224 0.084818244
-0.118182026 -0.07841225 -0.025875991 0.023070786 -0.065533616 -0.032270383 0.1226582 0.105478846
0.07218464 0.15712766 -0.04642749 0.028009081 -0.06194295 -0.08049877 0.062348373 -0.09298396
00000000: ec6e 693d a995 133e faad ddbd 39b4 9cbc
00000010: 2983 ca3d 61e9 bd3d c888 fcbc 35d2 84bd
00000020: 607e 143d 259f 113e 32e3 14bb 8bf8 18be
00000030: d8a1 79bd fc2d 853d a293 093e 30b5 ad3d
00000040: 6b09 f2bd 9a96 a0bd e3f9 d3bc f2fe bc3c
00000050: 7d36 86bd f32d 04bd 3934 fb3d 4b05 d83d
00000060: 8ad5 933d 13e6 203e c02a 3ebd 4d73 e53c
00000070: e4b7 7dbd 8adc a4bd 0261 7f3d 606e bebd
